Assets/MLModels/EnemyAgent/EnemyAgent-276610.onnx (onnx, 80826 bytes, 7 tensors)

network_body._body_endoder.seq_layers.0.weight f4 [128, 8]
00000000: b3e6 13bf 03a2 ea3d 2556 6abd caf2 003e
00000010: 4af8 fe3e 9e8e 0bbf a348 183f f3f5 653e
00000020: 0e29 28be a580 23be fcb4 6c3e 8e2c 8bbf
00000030: 92aa 8cbe ec9e e23e bf0b b43e 6c1d 81be
00000040: 0ba3 4c3c d655 713e 2727 073c 6890 ad3e
00000050: be2d 903e e545 71bf 72c5 bc3e cb2a 443e
00000060: fa55 16be e677 ecbd 10fd f7bd bff4 07bf
00000070: 7120 8c3e dab7 62bc e70e d6be 81ce 953d
00000080: fbd1 0ebe 2179 c5be f49b 0e3f 29d2 413e
00000090: 127a bf3e 04f1 03bf 57ad d13e 6500 e2be
000000a0: bd39 773e b472 94be d8ee ad3d 2978 b53e
000000b0: 9c79 aabe 7646 eabd c877 dfbe 8d6e ebbe
000000c0: b4b0 373e 3b1a 6a3c 3562 5b3d 4ba2 1cbe
000000d0: f8c2 e63e 9aed 09be b4ce 32be 1adf 05bf
000000e0: 4bc5 183e b38b d53e 4c0e 8e3e da03 50bf
000000f0: a9ce 3c3f 8954 6f3e fab2 9bbc 8096 683e
00000100: cf96 38bf c15e 313e 836b d63d 5c1a d03e
00000110: 364d 54be 76fc 123f 38da bc3e a4cf 51bf
00000120: 761b 1a3f cfbe 6d3d b1d0 803e 4e31 bd3d
00000130: e842 51be ef19 c4bd 4a4d 223f 0193 53be
00000140: 4461 da3e 3df7 40be 144b 17bf 1ffb 9f3e
00000150: f35c 943e 40d3 e53b 5c8d ab3e 8908 0f3f
00000160: 8f5d 87be 37a9 15be e571 76be c069 22bf
00000170: f8e0 cf3e d6c2 f13e b4ff b3bd 21c9 85be
00000180: 96fb 6bbd 16a6 d23d 86fe 53bd 8942 09bf
00000190: 774d 21be 2618 5c3f d3b1 a23e b552 0dbf
000001a0: 704a c53e f828 ab3e 4ee5 9cbe cd0a 01be
000001b0: 9acf 843e 3114 933c c540 17be 16ed 78be
000001c0: fef4 ae3e d552 4c3e 057f a1bd 446c e1be
000001d0: 0c3a c3be 9a01 c2be 8d4d 9ebe f689 16be
000001e0: 013c 0e3f 0772 28be 6f10 483e ee1d 13be
000001f0: af59 473e c0c7 0cbf 7254 f4be af85 b7be
00000200: 05e3 9e3e fff0 fdbe f157 d3be f3b9 e93d
00000210: acdb 12bf 9fec 223f ca49 c9bd 38f1 08bd
00000220: a8ec 84be 4cbe 553d 35a3 a03e 87c8 3b3e
00000230: 7022 dabd 0f83 c43e e481 e3bd d775 f3bd
00000240: e060 b93e d6b8 d63e 6ff4 d6bd be75 463e
00000250: b32c c33c 5480 12be 1a75 773e 922e 15ba
00000260: 4ff2 48bf dd8f c53e 893a bcbd 0f1b 27be
00000270: dd86 963e 8171 67bd 2f1d 523d 5301 5f3d
00000280: 6ce3 a3be 6c78 8f3e 457f 253f d254 9f3e
00000290: 144a 96bd ca6c 40bd 0500 1a3e 7ae7 4abe
000002a0: 9e5c fb3d 681f 093e 36ba 4dbe d463 1ebf
000002b0: 380b cfbe 8e99 883e 14ee 323f ab47 013e
000002c0: fc6a 95be b1ce 2fbe 2802 693f 30a1 873e
000002d0: 8be4 0b3d 8ed1 bd3e 86b7 293e fc8e a33e
000002e0: 7469 50be f699 77be d107 9ebe 263e 673e
000002f0: 836d b7be b733 973b c740 863e 7fa1 283e
00000300: 8476 143f cef1 b0be d881 7d3e 56d5 063f
00000310: 27ec a9be 7bbe dd3e d2e0 ca3e e1de d73e
00000320: cafe 263d 1c28 84be 7e02 123f 20d0 b23e
00000330: 657a ffbd fdcb 89be ee4b 82bd 77ef 4ebe
00000340: cf75 aebe 7810 22bd 3657 44be 7b36 b13e
00000350: 616e cbbe d4c1 ef3e 04f8 173e de02 41be
00000360: 901b 2ebe a916 bb3e 2da7 5e3e 8d7f b03e
00000370: 844a 343e 91c2 653f ccdb ebbc 0a85 7bbd
00000380: 5069 4f3e eff4 58bf f266 d5be 383f 8fbe
00000390: d912 9c3c 6068 5dbe e153 66be 40ad acbe
000003a0: 3455 fa3d bcd4 1dbe 4b99 e6bc 8f3e 863e
000003b0: da7f 9b3d 84a8 bdbe e169 74be cc4b a03e
000003c0: 0289 5ebe 2f4e 21be 2466 973e 1de0 033d
000003d0: bceb 4d3f 59ab 2bbf 4cb6 47be 714c cbbe
000003e0: 8636 acbe b405 3bbd 4fbc 74be daa4 39be
000003f0: c4ec 2a3e f856 babe b03e b73e 1e66 a93e
-0.57773894 0.114566825 -0.05721106 0.12592617 0.49798805 -0.5451449 0.59485835 0.22457103
-0.16421911 -0.15967043 0.23115915 -1.0872972 -0.27473885 0.44261873 0.35165212 -0.2521776
0.012490044 0.235679 0.008249081 0.33899236 0.281599 -0.94247276 0.3686939 0.19156949
-0.14681235 -0.11546306 -0.12108815 -0.5310783 0.273685 -0.013837779 -0.41808245 0.07314778
-0.13947289 -0.38568977 0.55706716 0.18927826 0.3739782 -0.51539636 0.4095256 -0.44140926
0.24143119 -0.28993762 0.084928215 0.35443237 -0.33295906 -0.114392206 -0.43646073 -0.4598278
0.179385 0.01428848 0.053560454 -0.15296285 0.45070624 -0.13469544 -0.17461663 -0.5229355
0.14919011 0.41708145 0.27745283 -0.81255877 0.7375284 0.23372091 -0.019006241 0.22713661
-0.72105116 0.17321302 0.10469725 0.4064511 -0.20732579 0.57416475 0.36885238 -0.8195746
0.6019815 0.058043297 0.2515922 0.0923792 -0.20435679 -0.09575259 0.63399184 -0.20661546
0.42652333 -0.18844314 -0.59098935 0.31246278 0.28977165 0.0070137084 0.33506286 0.558724
-0.26438567 -0.14615332 -0.24066885 -0.6344261 0.40601325 0.4721896 -0.08789006 -0.26130012
-0.057612978 0.10285585 -0.051756404 -0.5361715 -0.15752207 0.8597435 0.31776294 -0.55204326
0.38533354 0.33429694 -0.30643696 -0.12601776 0.25939637 0.017953964 -0.14770801 -0.24309191
0.3417129 0.19953473 -0.07885555 -0.44027913 -0.38130224 -0.37891847 -0.30918542 -0.14701065
0.5556031 -0.16449748 0.19537519 -0.14366886 0.19467805 -0.54992294 -0.47720677 -0.3584418
0.31032577 -0.49597928 -0.4127803 0.1141242 -0.5736644 0.63642305 -0.09828527 -0.03343317
-0.25961804 0.052183434 0.31374517 0.18338214 -0.106511 0.3838124 -0.11108759 -0.118877105
0.36206722 0.41937894 -0.10495841 0.19380853 0.023825025 -0.14306766 0.24165764 -0.00056908384
-0.78494734 0.3858632 -0.09190852 -0.16318916 0.29399768 -0.05650473 0.051297363 0.054444622
-0.32009447 0.28021562 0.6464732 0.311194 -0.07338348 -0.04697875 0.1503907 -0.19814864
0.12273525 0.13390887 -0.20090565 -0.61871076 -0.40438247 0.26679653 0.6989453 0.12624995
-0.29183185 -0.1716869 0.91018915 0.26490164 0.034153502 0.3707394 0.16573915 0.31945026
-0.20352727 -0.24179825 -0.30865338 0.22582301 -0.35825738 0.004614319 0.26221296 0.16467856
0.5799334 -0.34559482 0.24756563 0.52669275 -0.33187982 0.43309388 0.3962465 0.4216223
0.04077033 -0.2581185 0.5703505 0.34924412 -0.12474517 -0.26913443 -0.06362139 -0.20208536
-0.34074256 -0.039566487 -0.19173893 0.34611878 -0.3973265 0.46827567 0.14840704 -0.1884875
-0.17002702 0.36540726 0.2174346 0.34472314 0.1760655 0.8975001 -0.02879133 -0.061406173
0.20255017 -0.8474874 -0.41680104 -0.2797792 0.019051956 -0.21621847 -0.22492935 -0.3372593
0.122232825 -0.15413183 -0.028149268 0.26219603 0.07592745 -0.3704263 -0.23868515 0.31307828
-0.21731952 -0.15752481 0.29570115 0.032196153 0.8043783 -0.6705833 -0.19503134 -0.39706758
-0.33635348 -0.045659736 -0.23899959 -0.18129292 0.16691881 -0.36394477 0.35790014 0.33085722

network_body._body_endoder.seq_layers.0.bias f4 [128]
00000000: d8f3 b53c b82d c3bc 51e9 3b3c cc8e 803c
00000010: db70 b93c 300d d0bb 3b7f cd3c 8377 a93c
00000020: b453 2c3d 023b 933c bf8b f13c d5d7 ae3c
00000030: 9ccc 4ebc eb8c 8ebc dfc9 653d 7e2a 053d
00000040: af2b a53c 00d6 f93a e087 113d 83f7 13bd
00000050: e2cc 103d d3f3 913c 0d9b c43c 30a2 583b
00000060: 26db 743c 8950 2c3b c510 c33c 3b73 633c
00000070: df26 bdbc 8405 cc3c 19c4 fd3c 7f07 3a3c
00000080: 7674 293c 4892 013c 499a 813c 2d82 ee3a
00000090: 74c9 4638 88c6 853c 63c8 6c3c 6417 903c
000000a0: 0e65 ab3b 9a32 033b 008e edbd 4c69 47bb
000000b0: 4867 5d3b 6a20 f13c 28a4 2b3c 9cdc 99bc
000000c0: 7f01 11bc 108e 973b 90ba a43c 46cb 883c
000000d0: 7c9e a83c 4f5d 8c3c f59c 633c 75de 113c
000000e0: 4492 fbbb 5996 ecbc 9752 723b 756e b83b
000000f0: 24db 533c ff16 34bc 890b f93c 0b17 a33c
00000100: c569 bc3c 2f0e 68bc 684a 8c3c ac21 ba3a
00000110: cfc2 ab3c a462 6fbc d95e 923c a44d a4bc
00000120: d309 883c 1d0c ca3c e573 8d3c 470b 073d
00000130: d081 18b9 87ed eabc f9be 1b3d 87c0 ae3c
00000140: 6df6 fc3b 9fa4 8f3c c870 c83b b3c0 ba3b
00000150: 615b 9a3b 00b3 3c3c b387 d13c 4fec b13c
00000160: dba0 2d3c 328d ff3c e0f3 66bc bbf9 c53c
00000170: bd35 bf3c 77df 00bc f33d 803b bb3d 2a3d
00000180: 433a da3c d371 9c3c 9207 6139 a44c 2c3b
00000190: 9dcb e93c 9710 6abb 2f43 5e3c 4ea8 153c
000001a0: 2bd2 05bd dec2 d13c d863 3d3b 947e c43c
000001b0: de1f 193d cc4d d1bc 4fc3 063c e104 8a3b
000001c0: d6df 0bbd d7a9 bbbc f370 94bc 8401 c23c
000001d0: 9462 d43c 4310 ae3c 747a b7bc 527e 633c
000001e0: e0ea 953c 070f 893b dabe 233c 137c 763c
000001f0: ae10 073d 3cac be3c d161 cf3c 5303 20bc
0.022211 -0.023825511 0.011469201 0.01569309 0.022636821 -0.0063492283 0.025085082 0.02068687
0.042072013 0.017972473 0.029485581 0.021343151 -0.012622025 -0.01740118 0.056100722 0.032511227
0.020162432 0.0019060969 0.03552997 -0.036124717 0.03535164 0.01781646 0.023999715 0.0033055656
0.014944827 0.002629312 0.023811707 0.013882454 -0.023089824 0.024904974 0.030977296 0.011354326
0.010342708 0.007908411 0.01582064 0.0018196754 4.7394497e-05 0.016330019 0.014452073 0.017589279
0.0052305525 0.0020019175 -0.1159935 -0.0030427752 0.0033783484 0.029434402 0.01047615 -0.018781953
-0.008850454 0.0046250895 0.020108491 0.01669849 0.020583384 0.017134337 0.013892402 0.008903136
-0.0076773483 -0.028880285 0.0036975497 0.005628402 0.012930665 -0.010991811 0.030401008 0.019908449
0.022999654 -0.014163538 0.017125323 0.0014200709 0.020966915 -0.01461092 0.017867493 -0.020056553
0.016606247 0.02466398 0.017267177 0.03296974 -0.00014544209 -0.028677715 0.038023923 0.021332039
0.007719806 0.017534552 0.00611696 0.005699241 0.0047106002 0.011517286 0.025577402 0.021719126
0.010597433 0.031195257 -0.01409623 0.024166932 0.023341054 -0.007865778 0.003913635 0.041562777
0.02663911 0.019097244 0.00021460492 0.0026290799 0.028539473 -0.0035715455 0.0135658225 0.009134365
-0.032671135 0.025605615 0.0028898623 0.023986138 0.037383907 -0.025549792 0.008225276 0.0042120074
-0.034149013 -0.022908134 -0.018120265 0.023682363 0.025925912 0.021247989 -0.022397257 0.013885098
0.018300474 0.0041826996 0.009994233 0.01504423 0.03297489 0.023275487 0.025315197 -0.009766418

network_body._body_endoder.seq_layers.2.weight f4 [128, 128]
00000000: 530a 0a3e 9af8 523d ad8b c03b 2543 b03d
00000010: cb44 8ebd 68c1 75bc 82e8 2a3e d461 1c3d
00000020: c91b 003e 36ea f93c 9b24 97bd 5b0f ef3c
00000030: 1da3 67bd fbe2 7abd 6288 e33d 9a25 dd3d
00000040: 8234 adbd 393d 09be abb3 363e 28b6 fbbd
00000050: 366d 59bd 11f8 fa3d 649f febc 2079 a7bc
00000060: ee58 803d d882 0d3d 015b 243c ef96 9dbd
00000070: a6b6 d83d 5a3b 653d 7799 84bd 38ba 3e3d
00000080: 4bf2 10be 98cb 1dbe 6be3 6f3d 2b9c 473d
00000090: 1d62 3abd ae60 ff3d 1066 b83b 9794 b83d
000000a0: b820 56bd 22d7 2fbd b389 1b3c 01ff c0bd
000000b0: ce81 bebd 27a7 573d 48a5 29bd 1118 e33c
000000c0: 5705 8fbd e0b1 adbd c4d1 8abe db98 bfbd
000000d0: 12d8 063e 4133 843d c7b9 6cbd 1340 263e
000000e0: a2de 22bd 5f96 933d 0109 d7bb 5ee8 92bd
000000f0: 7281 51bd ae17 b53d 5974 373e afed 34be
00000100: eca3 083e 0b62 5cbd 7462 663d 7155 1dbe
00000110: a3bc a4bd 2cd9 433e 6b3f ee3d 9386 0a3e
00000120: a954 fdbd d766 023d 98e2 d93c f601 b2bd
00000130: 4480 693d a2cb a13d b45d 6d3d 9cdb e5bd
00000140: 6c73 d8bd 04bc a2bd f7d5 003d 76c3 a43b
00000150: b496 10be 3897 1fbe 9bcd 0ebe d638 34bd
00000160: b4b1 1abd abce 5d3e 2d0e 5fbd 3a3e 893d
00000170: fea9 1bbe f92e 81bb d5a2 de3d 753b 04bd
00000180: d9bc 0fbe c2e1 a3bd 0169 f3bd bf6f 253e
00000190: 0e70 283e 9b01 5cbb 4791 52bb 8c81 9dbd
000001a0: af7d 26be 0d4c 0cbe baa9 b33d f0ed 933b
000001b0: dff1 2a3d d4b0 afbd dd14 063d 1a24 3ebe
000001c0: 0413 953c 3d95 25be dfec 8ebd 515c 843d
000001d0: 1935 39be d79d 0ebd 3d94 b53d d1bc a5bd
000001e0: 056f fc3c 62fd 97bc c75a a03d ef62 af3c
000001f0: cf20 863d 1922 3a3d b97e 3d3e dcd3 023d
00000200: 32ff f03c 3a64 3b3d d230 76bc a57b 47bc
00000210: cc71 84bb 10ab 323c e320 95bd 476c 273e
00000220: f7c1 15bc 1144 993c ba0b 083d 1190 773d
00000230: ed46 123d cb23 103d 93b6 4fbd 54e4 5a3d
00000240: b326 353d ba12 fe3d dc00 57bc d10e dfbd
00000250: 7ee4 49bd 0cfd 0ebd 805e 28bd 5f41 55bc
00000260: bb11 ee3c f3c8 69bd 5683 f738 8614 443e
00000270: aa86 7f3d 2f9e 58bd d66c b8bd 15f7 21bc
00000280: daef 723b 1a61 f33b 34f3 d93d 3af2 b8bd
00000290: 96af 0dbd 9a8a 93bd 79dd 05bd 2e30 c8bd
000002a0: a3b9 d43b cabc 36bc 90d4 9fbd ff02 2e3e
000002b0: 7522 3c3d 37a1 fbbc e8f5 0e3e b53d c0bd
000002c0: 1348 373e c7cd ed3d 42b2 763d 7e42 00bc
000002d0: 77db d63c 5d04 58be 22b8 aebd e733 93bd
000002e0: d4a6 773c b800 0f3e 19d9 04bd aa73 a9bd
000002f0: aeae 4c3d b6ee 2bbd 318e 413c cdfd 2a3e
00000300: e5c2 30be d32c 62bd 4233 c23c 392f ff3d
00000310: 5a1e 95bd f609 2e3e 5450 c4bd 1520 febd
00000320: 0efd bdbc bb17 03bd 283c 92bd fac2 ce3d
00000330: 6930 8c3c b43f 27bd 460c c5bd 3fe7 bebd
00000340: 7548 d93d a9c4 d83d 9777 b8bd 632e 9ebd
00000350: 0c32 c2bc 7b2e bd3b 487b b23b 21e8 853c
00000360: 2cfa f53d f7c1 b5bc 2b16 01be 74c2 fb3d
00000370: 7570 753d 3e7c 50bd 8b46 cd3b 0873 013d
00000380: 2d0b cbbd bb8d 97bd fc29 0ebc a61e 4a3d
00000390: 75e1 b33b 5ee7 a0bc a6cd 4b3b c61d cabd
000003a0: 0f31 02be 2692 19be 972d 853d 03af 37bd
000003b0: 2a39 5a3c d447 b3b9 198f dd3d 9eab 8cbd
000003c0: b3c4 b4bc b336 053d 1ad6 063d 1480 913d
000003d0: e0c2 bfbd 7bea 123e 7c2e b33d feaf 27bc
000003e0: f9ec 39bd eec3 c43c f3d8 e6bc fdd1 a63c
000003f0: 6f99 7bbd 194d 9abc 9499 5cbd ee24 a0bd
0.13480501 0.051506616 0.0058760257 0.08606557 -0.06946715 -0.014999725 0.16690257 0.038179234
0.12510599 0.030507188 -0.07380029 0.029182127 -0.05655204 -0.06125162 0.11109997 0.107981876
-0.08457281 -0.13402261 0.17841975 -0.12290603 -0.053082667 0.12254346 -0.031081863 -0.0204435
0.06266962 0.03454861 0.010031463 -0.07694804 0.105817124 0.055964805 -0.064745836 0.04656431
-0.14154927 -0.15409696 0.058566492 0.048732918 -0.045503724 0.12469612 0.005627401 0.09012716
-0.052277297 -0.042929776 0.009493279 -0.09423638 -0.09302102 0.052649643 -0.04141739 0.027721437
-0.0698344 -0.084811926 -0.27113163 -0.09355327 0.13168362 0.064550884 -0.05779436 0.1623538
-0.0397631 0.072064154 -0.0065623526 -0.07173227 -0.05114884 0.08842407 0.17915477 -0.17668794
0.13343781 -0.05380444 0.056246236 -0.15364625 -0.08043792 0.19125813 0.1163319 0.13527898
-0.12369663 0.031836357 0.026597306 -0.0869178 0.05700709 0.07900168 0.05795069 -0.11223528
-0.1056889 -0.079460174 0.031454053 0.0050281836 -0.14119989 -0.15585029 -0.1394562 -0.043999515
-0.037767127 0.21660869 -0.05445688 0.06701322 -0.15201566 -0.003942367 0.108709015 -0.032283265
-0.14036883 -0.08002044 -0.11885262 0.16155909 0.16448995 -0.0033570293 -0.003213005 -0.07690725
-0.16258882 -0.13700886 0.08772607 0.0045144483 0.041734572 -0.08578649 0.03273474 -0.18568459
0.018197544 -0.16170211 -0.06978773 0.064629205 -0.18086661 -0.034818497 0.08866165 -0.080926545
0.030814657 -0.01855344 0.078298144 0.02140948 0.065492265 0.045442674 0.18505372 0.031940326
0.029418562 0.04574988 -0.015026288 -0.012175475 -0.004041886 0.010905042 -0.07281663 0.16349898
-0.009140483 0.018709214 0.03321431 0.060440127 0.03571217 0.035190385 -0.050711226 0.053440407
0.04422636 0.124059156 -0.0131227635 -0.10891498 -0.049290173 -0.034909293 -0.041105747 -0.013016074
0.029061189 -0.057076406 0.00011802341 0.19148454 0.062384285 -0.05288523 -0.09005134 -0.009885569
0.0037069232 0.007427347 0.106420904 -0.09030576 -0.03459128 -0.072041705 -0.032681916 -0.097748145
0.006491856 -0.011153409 -0.07804215 0.1699333 0.0459313 -0.030716522 0.13960993 -0.0938677
0.17898588 0.116115145 0.060228594 -0.007828353 0.026227696 -0.21095414 -0.08531214 -0.07187634
0.0151154585 0.13965118 -0.032433603 -0.08274014 0.049971275 -0.0419757 0.011813686 0.1669838
-0.17261846 -0.05521853 0.023706082 0.12460179 -0.0728118 0.16995987 -0.09585634 -0.12408463
-0.023191955 -0.032005053 -0.0714038 0.100957826 0.017112928 -0.040832236 -0.096214816 -0.093214504
0.10609523 0.10584385 -0.09007185 -0.07723691 -0.023705505 0.005773363 0.005446825 0.01634604
0.12010607 -0.022187216 -0.12606113 0.12292948 0.0599217 -0.050899737 0.006264513 0.031603843
-0.09914241 -0.0740008 -0.008677002 0.049345635 0.005489523 -0.019641574 0.0031097918 -0.0986896
-0.12714027 -0.14997157 0.06502836 -0.04484464 0.013319293 -0.00034195057 0.10818309 -0.06868671
-0.02206645 0.03252287 0.032919027 0.07104507 -0.09363341 0.1434726 0.087491006 -0.010234831
-0.04539201 0.024019208 -0.028179621 0.020363802 -0.061425623 -0.018835591 -0.0538574 -0.07819544

network_body._body_endoder.seq_layers.2.bias f4 [128]
00000000: 8059 1d3c f276 943b b006 e23c be2b e53c
00000010: 553d 263b 6125 3b3b dd45 2d3c d6f6 a03b
00000020: 5bf2 d13b d96f c5bb 3f84 ae39 9562 303c
00000030: 30c3 823c 017b 853b 7fff ea3c e69f b43c
00000040: 98e0 ab3c a25f 81bb 6973 8e3c 9ab2 553c
00000050: cd9c 84bb 35cf 27bc f9b0 ddbb b66d 11bc
00000060: 6d62 f33b 9c61 a83c 1987 bbbb 2477 c53c
00000070: be1d 983b ce33 cd3c 0d03 5c3c cf4e 6e3c
00000080: 2a18 ac3b cbeb 7b3c aa58 35ba afe2 943c
00000090: c119 4fbb 0d8a b2bb 29d0 3a3c b502 e43c
000000a0: ddc6 b93a a31e 613b fbfa d93b fa20 543c
000000b0: 34b8 a53b e0dd dd3b c5b4 913a 26ed 1d3c
000000c0: 97db 8a3c cd3d 06bb 5bd7 093a 92a8 b9ba
000000d0: c4d5 f03c 7de9 c73b 7ee8 833c c92c 0d3d
000000e0: b8db 613c 152c 5a3b 1c96 82ba 7d1b d53c
000000f0: b293 d93b 1124 b63c bca8 a83c 06cc e23b
00000100: 9dda dc3b 03bb 503c 8f07 12bb d4ae a63c
00000110: e794 abbb 0f21 40bb a562 2b3c 665f 903c
00000120: 9418 bd3c 6fbe 9e3b 75ac 6e3c d76e e13a
00000130: eb03 843c f364 e53c ed66 573a b926 51bb
00000140: 5d40 053c 9f0b b43c 01fa 503c 3b40 3cbc
00000150: a0bf fc3b bfac 7fba 1786 8d3c 4d55 d93c
00000160: 0856 123d bc6a 963c 88db 983c e208 063c
00000170: 71b3 fe3a 8342 333c 0425 41bc d241 d93b
00000180: 8bef a3bb 63ef 9abc f3cd a83c c740 bb3c
00000190: b8c9 e23c 42e5 2e3d a176 283c 7dac 743c
000001a0: 650a c23b 14b5 18ba e4ef 00bc bb59 5dba
000001b0: 7b0c 043d 5e4a 993b 4b64 8239 e842 4f3c
000001c0: b89b 683a fb1e 623c 2fb8 153c af1c d53c
000001d0: 60e7 3e3d dbe3 483c e5ca 9dbb 9da8 e43c
000001e0: ace7 cbbb 1ba0 033c ba42 ddba 5782 7d3c
000001f0: ced2 3a3a 03fc 553c 1bb1 123c df5c 893c
0.009603858 0.004530781 0.02759108 0.02797496 0.0025366147 0.0028556215 0.010575739 0.0049122376
0.006407065 -0.006025296 0.00033286397 0.010765691 0.015962213 0.004073501 0.028686283 0.022048902
0.020981118 -0.003948168 0.017389016 0.01304307 -0.0040470124 -0.010242273 -0.0067654816 -0.008876255
0.0074275048 0.020554356 -0.005722892 0.024104662 0.0046422174 0.025049116 0.013428462 0.014545157
0.005251904 0.015376042 -0.0006917814 0.018174497 -0.0031601044 -0.005448586 0.011402168 0.027833322
0.0014173646 0.0034350536 0.0066522337 0.012947315 0.005057359 0.0067708343 0.0011116496 0.00963906
0.016950412 -0.0020483613 0.0005258226 -0.0014164618 0.029398806 0.006100832 0.016102072 0.03446654
0.013785295 0.0033290435 -0.0009962949 0.026014084 0.006639921 0.022233995 0.020588271 0.006921294
0.006739928 0.0127399 -0.0022282337 0.020347036 -0.0052362564 -0.002931658 0.01046053 0.017623615
0.023083009 0.004844479 0.014567484 0.001719917 0.01611515 0.028002238 0.0008216936 -0.003191395
0.008133021 0.021978198 0.012754918 -0.011489923 0.007713273 -0.0009753219 0.017275853 0.026529932
0.035726577 0.018361442 0.018659368 0.008180829 0.001943214 0.010941151 -0.01178861 0.006630161
-0.005002921 -0.018912977 0.020606017 0.022858037 0.027684078 0.042699106 0.01028219 0.014933703
0.0059216493 -0.00058253226 -0.007869694 -0.0008443852 0.032238465 0.0046780547 0.00024870256 0.012650229
0.00088733016 0.013801332 0.009138151 0.026014654 0.046607375 0.012261356 -0.0048154467 0.027912432
-0.006222686 0.008033778 -0.0016880848 0.01547297 0.0007126749 0.013060573 0.008953358 0.016767917

action_model._continuous_distribution.mu.weight f4 [1, 128]
00000000: 4ad0 b0bb c629 90bc fd53 a73c d308 613a
00000010: 6809 783c 0780 88bb 4ef7 033c bdb3 563c
00000020: 019e cebc 6686 2bbc dcce 9e3b 0ef9 3f3a
00000030: 439f 393d 13df 26bb 4641 d1ba 7692 b13a
00000040: 4425 86bb 9182 24bc bf16 923c 5eae 8dbc
00000050: 5da6 18bd ea7c 1c3c 9de0 a03c 2568 9a3c
00000060: f18b 153b bdd8 a73a 045a b1bc 947c 3d3b
00000070: 8d27 493c 0d72 b239 b999 5ebc fbd7 28bc
00000080: 10c0 eabc e68e 89bb 1ea8 c33b 7a6c 523c
00000090: 4d5e b1bc c58a 9fbc 6ffd b33c ece7 db3b
000000a0: ba7f 88bc 3008 ea3c 7240 08bc 776a 4fbc
000000b0: 6215 bdbc 830e 8dbc 9dd0 d6bc 4022 3cbb
000000c0: 5343 3dbc 988b 0bbc 3b9e e5bc 7f88 2abc
000000d0: cedb 20bc 4abf 8ebc 54bb db3b 6c0b c03b
000000e0: a4c7 17bd 98b9 f93b 55e2 bd3c 4f14 963c
000000f0: 11e6 1c3c 43c1 b7ba 60ba 03bb 44a8 04bd
00000100: c402 09bc f893 e23c c986 123b 528b 193c
00000110: c285 9cbc 1fb7 4c3c b119 063c cec9 6e3b
00000120: 35dd d6bc c732 d8bc 5ef6 0c3d 10d4 ec3c
00000130: c8fe 2939 1488 7f3c 4bfd 723c 8053 ccbc
00000140: e18d 863c cfd8 3b3c 57fe 59b9 5ff1 bbbc
00000150: 78b4 abbc 9e5a a63c 8f2b b3b9 7672 17bd
00000160: 0bda 83bb 5c9a b8bb 9502 73bc c1b5 103d
00000170: 7c8f c0bc 4f33 2bbd c130 013b 7615 163c
00000180: 8a05 faba 7558 adbc ad9d 26bb 39bd 443a
00000190: 9d50 fe3a 70d9 d0bb 582c 8c3c 1c32 13bc
000001a0: 08f2 cbba 2581 d2bc 12c7 7ebc e4f2 053d
000001b0: a1b7 10ba b565 cb3c 1b42 cd3c 50f9 3dbc
000001c0: 2a42 06bd 17f5 3dbc 2b7d 0c3d 62b2 aa3b
000001d0: bac0 a83b ce18 003c abc7 a83c 831a f9bb
000001e0: 8263 c6bc 0e1c 9abc 3799 a1bc 7f7a 5ebc
000001f0: f47c a33c 33f3 10bd e2c1 2e3d 1754 abba
-0.0053959237 -0.017598044 0.02042579 0.0008584384 0.015138961 -0.0041656527 0.0080545675 0.013104376
-0.025221827 -0.010469055 0.004846437 0.0007323184 0.0453179 -0.0025462552 -0.0015964888 0.0013547677
-0.004093798 -0.010040895 0.017833112 -0.017295059 -0.03726803 0.009551266 0.019638354 0.018848488
0.0022819007 0.0012805682 -0.021649368 0.0028913366 0.012277496 0.0003403578 -0.013586455 -0.0103054
-0.028656036 -0.004197943 0.005970969 0.012843246 -0.021651411 -0.01947535 0.021971432 0.006710997
-0.016662467 0.028568357 -0.008316146 -0.012659661 -0.023081485 -0.017218834 -0.026222521 -0.0028706938
-0.011551696 -0.008517168 -0.028029552 -0.01040852 -0.0098180305 -0.017425198 0.006705681 0.0058607366
-0.037055627 0.0076210015 0.023179213 0.01832023 0.0095763365 -0.0014019388 -0.0020100102 -0.032387033
-0.008362476 0.027658448 0.002235817 0.009371595 -0.01910675 0.012494831 0.008184836 0.0036436203
-0.026228527 -0.0263914 0.03441464 0.028909713 0.0001621201 0.015596408 0.014830898 -0.02494216
0.016425075 0.011465265 -0.00020789482 -0.022942243 -0.020960078 0.020306882 -0.00034173994 -0.036974393
-0.0040237955 -0.0056336354 -0.014832159 0.035329584 -0.023505919 -0.04179698 0.0019712897 0.00916039
-0.0019075137 -0.021160344 -0.0025423572 0.0007505003 0.0019402687 -0.006373577 0.017110988 -0.008984115
-0.0015559802 -0.025696347 -0.015550392 0.03270234 -0.0005520527 0.024828771 0.025055936 -0.011595085
-0.032777943 -0.0115940785 0.034299057 0.005209253 0.005149928 0.007818414 0.020603022 -0.0076020374
-0.02421737 -0.018812206 -0.019726379 -0.01357901 0.019957043 -0.035388183 0.04266537 -0.0013071325

action_model._discrete_distribution.branches.0.weight f4 [5, 128]
00000000: d856 98bc 0193 833c 2a5f 07bd cf41 48bd
00000010: 561f c63b 683d f23c 57f0 37bc c6fa 4cba
00000020: 441d bcbc 4340 e03b 1d07 d53c 623f a13a
00000030: 8341 a1bc 8d8c ec3b b098 74bc 2511 68bc
00000040: 7e10 d7bc 9332 303d 58b9 73bc 3222 d2bc
00000050: b1db 323c 0d02 603b 6c15 e13c f63c beba
00000060: 354e a43b 7ca3 debc 2377 ba3c 6907 473d
00000070: 397b d43c 077b 3b3d a961 133d d9c1 67bc
00000080: 5f8d 0c3d f710 0f3d cdc0 7b3c bd43 f2bc
00000090: fed2 193c 2e4f e73b 2b62 e83c e644 303d
000000a0: 008d da3c 834a d7bb 53da 363d 9e00 c4bc
000000b0: cb59 333d da8c 963c e670 373c af45 403d
000000c0: cc0e fabc 0e53 a33c 7b47 ca3c 03d6 3d3c
000000d0: 4a01 07bd 3c31 e53b 0c79 63bc 8825 44bd
000000e0: 6c9c 1cbd a77e 083d 5961 983c 18fc 56bd
000000f0: e8ec d63c 7f39 953d e102 00bd c989 dfbc
00000100: e83c 143d 8c79 d2bc 8e2c 8c3c 033c b0bc
00000110: de81 cd3c b4fd d93c d2da acbc c37a 10bd
00000120: 66b6 26bd a91b c5bb c0c7 20bd a779 efbb
00000130: cce3 c63c 5652 f6bc 32b4 bbbb 972d c33b
00000140: cab0 1d3d 0d03 c9bc 8609 7a3d 5377 823b
00000150: bf26 083d 421b a63b aa35 30bd fddd 0fbd
00000160: 49f6 073d da7b 0a3d 1f41 94bc 864b 9ebc
00000170: 0610 453d cdc0 57bc 250b 733c 1f47 a6ba
00000180: 3eb9 4d3c c349 0a3c 4e75 3fbd beb3 02bd
00000190: 4d8a 4bbd 8689 0c3d 2048 c3bc 0941 3f3d
000001a0: 197d 09bc 68d8 f93c 59a2 0c3c 974e b73c
000001b0: c946 06bd ace3 f03b a1ac 57bb 9e49 eabc
000001c0: 1043 0b3d 73ca f9bc 8d91 b8bc 33bf f3bc
000001d0: e7c3 57bd c195 413d eedf 3f3c 9d39 31bd
000001e0: 8cfb e53c 6fdf 283d 2cc6 303d de45 f53c
000001f0: 4734 063d 5ef7 dcbc f84e 3e3d 9a4e a8bc
00000200: 5c63 c9bc c7c2 e33c 8338 0dbd 849b 91bd
00000210: 6403 a03c 1edb a33c 3973 08bd 9c1a c43c
00000220: 61e0 eeba 77ef 2fba 1f43 cd3a 832d b7bb
00000230: ba90 f5bc aaa4 963c 0afa 07bd 737d 9fbc
00000240: 54d7 fdbb 8c06 d23c 11aa 27bc f0a9 853b
00000250: 9f3d 93b9 1382 6a3a 7ccd 433c b54c b9bc
00000260: 2cdc 31ba ba0c 4eba 96ab 873c 5e8c 5c3c
00000270: 6b2c 8f3c ebc5 783c a704 f13c 28d1 16bd
00000280: 1631 bc3c f1d5 8c3c 6074 303c e27b 13bd
00000290: 3f6e bc3c b9c4 5dbc 8ffe 383d a403 f03c
000002a0: 6119 513b 1a9c ed3c d295 b83c d12c 61bc
000002b0: f360 7a3c 8ec2 973c 04b8 8a3c 9469 353c
000002c0: a284 83bc e0e7 2a3c 6c17 cf3b 42bf 0cbc
000002d0: fef9 a7bc 9895 853b 9f00 97bc e11e 52bd
000002e0: 5224 5fbd ac76 d73c 01bb 023c 8f64 11bd
000002f0: 2bea f03c 8460 d23c 3e9b 6bbd e313 bfbb
00000300: 6f6a 733c 10ff 28bc cbc0 a13c a0bd 99bc
00000310: f24b 753c 2c30 d43c 5209 d8bc 4567 15bc
00000320: 9f30 7fbd 898b cdba 0187 15bd e2e1 743b
00000330: 7a52 903c fdc3 c7bc 314a 09bc ed40 883b
00000340: ff3a 343d f155 e5bc d117 143d afc2 4a3c
00000350: 845f 983c a78b d53c c916 bdbc e285 54bd
00000360: b6b3 ac3c 00fe cf3c f8a2 0dbd c3cb c639
00000370: 4fa5 803c 633a 2fbd dc98 8e3c f509 55bb
00000380: b6b2 843c 1d96 153c a36c e5bb 463d 20bd
00000390: 874c 25bd b290 8f3c 04c8 97bc 79fb 9f3c
000003a0: 9210 d2bc a626 d43b b146 1d3c 2a4c 3e3c
000003b0: 11b4 bebc f0d1 0b3c a0a0 ec3a 2c8b 18bd
000003c0: c7c2 933b 22f3 c0bc 0e7c 8dbc 3fbc cfbc
000003d0: c8d8 4bbd 7c79 d73c d8bf aa3c 67c0 6ebc
000003e0: 23f5 ee3c d3e5 0a3b a176 743c 171f 523c
000003f0: bc6a 943c 3432 62bd f87e 743d ba44 37bc
-0.018596098 0.016061308 -0.03304974 -0.048890885 0.006046216 0.029570296 -0.011226735 -0.00078193506
-0.022963174 0.006843598 0.026004368 0.0012302215 -0.019684559 0.0072189034 -0.014928982 -0.014164244
-0.026252981 0.04301698 -0.014875732 -0.025651071 0.010916636 0.003418091 0.027476035 -0.0014514017
0.005014206 -0.027177565 0.022761887 0.04859105 0.025937663 0.045771625 0.035981808 -0.014145338
0.03431451 0.03492829 0.0153657915 -0.029573316 0.009388683 0.0070589995 0.028367123 0.043034457
0.026678562 -0.006570162 0.044641804 -0.023926076 0.043786805 0.01837771 0.011196351 0.046941455
-0.030524634 0.019937064 0.024692288 0.011586669 -0.032960214 0.0069943946 -0.01388384 -0.047887355
-0.038235113 0.03332391 0.018601106 -0.05248651 0.026236013 0.07286357 -0.031252746 -0.02728738
0.036190897 -0.025692724 0.01711109 -0.02151299 0.02508634 0.026610233 -0.021100435 -0.035273325
-0.040701292 -0.0060152602 -0.039252996 -0.0073082033 0.024278544 -0.030068558 -0.005728268 0.0059563625
0.038498677 -0.024537588 0.06104424 0.0039815097 0.033240076 0.0050691674 -0.043019928 -0.035123814
0.03319386 0.03380952 -0.018097458 -0.019323122 0.048110984 -0.013168526 0.0148342 -0.0012685991
0.012556372 0.008440438 -0.04674273 -0.031909697 -0.04969244 0.03431084 -0.023838103 0.04669288
-0.008391642 0.030498698 0.008583629 0.022376342 -0.03278235 0.0073513594 -0.0032909291 -0.028599557
0.033999503 -0.030492043 -0.022530342 -0.029754257 -0.05267706 0.047261957 0.011711104 -0.043267835
0.028074048 0.041228708 0.04315774 0.029940542 0.0327647 -0.026973423 0.04646203 -0.020545293
-0.024583511 0.027802838 -0.034477722 -0.071097404 0.019532867 0.020001944 -0.03331301 0.02393847
-0.0018224829 -0.0006711403 0.0015660262 -0.005590142 -0.029976238 0.018389065 -0.03319744 -0.019468999
-0.0077466164 0.025637887 -0.010233418 0.004079096 -0.00028083936 0.0008945774 0.011950847 -0.022619585
-0.00067848223 -0.0007860173 0.01656131 0.0134612005 0.017477235 0.015183906 0.029421164 -0.03682056
0.022972625 0.017191859 0.010769933 -0.036006816 0.023001788 -0.013535672 0.04516464 0.029298611
0.0031905996 0.0290051 0.022532377 -0.013743595 0.015281904 0.018525388 0.016933449 0.011072535
-0.016054455 0.01043126 0.006319931 -0.008590521 -0.020504948 0.004076671 -0.018432913 -0.05129898
-0.054477997 0.026301704 0.0079791555 -0.03549629 0.029408535 0.025680788 -0.057521097 -0.005831228
0.014856919 -0.010314718 0.019745251 -0.018767178 0.01497172 0.025901876 -0.026371632 -0.00911886
-0.062302228 -0.0015681844 -0.036505703 0.0037366082 0.017617453 -0.024385447 -0.008379505 0.0041581304
0.044001576 -0.027995082 0.036155526 0.012375518 0.018600233 0.026067568 -0.023082154 -0.051885493
0.021081787 0.025389671 -0.034579247 0.00037917317 0.015703825 -0.04278029 0.017406873 -0.0032507156
0.016198497 0.009130028 -0.007001476 -0.039120935 -0.040356185 0.01752505 -0.018527992 0.019529091
-0.025642667 0.006474334 0.009599374 0.011614839 -0.023279222 0.00853394 0.0018053241 -0.0372421
0.0045093033 -0.023553435 -0.017271068 -0.025358317 -0.049767286 0.026303045 0.020843431 -0.0145722395
0.029169625 0.0021194115 0.014920861 0.012824795 0.018117301 -0.05522366 0.0596914 -0.011185819

action_model._discrete_distribution.branches.0.bias f4 [5]
00000000: 7080 34bc 8112 94bb 32fa 8fbc 4f8e b03c
00000010: e55d 40bb
-0.01101695 -0.0045188074 -0.017575357 0.021552233 -0.002935284
