Assets/MLModels/EnemyAgent/EnemyAgent-296837.onnx (onnx, 78171 bytes, 6 tensors)

network_body._body_endoder.seq_layers.0.weight f4 [128, 8]
000000 6e cd bf 3e da cf 6a be 78 38 f5 3e 8e 53 2a 3e
       0.37461418 -0.22930852 0.47894645 0.16633436
000010 21 3a 97 be 38 b4 a7 be b8 cb 9e 3e c2 d0 f1 3d
       -0.29536536 -0.32754683 0.310148 0.118073955
000020 34 48 2c 3d 60 b8 3a be 8f 5f 27 be ad 5a 37 be
       0.042061046 -0.18234396 -0.16345046 -0.17905684
000030 65 73 24 bf 58 58 8f 3d 24 1f 76 3e 61 a7 62 3e
       -0.6423858 0.06999272 0.24035317 0.22134162
000040 6e d0 2d be 67 f6 cc be 2d dc 68 3e 7a 1a ac 3e
       -0.16974041 -0.4003174 0.2274024 0.3361395
000050 32 a8 13 3e 19 67 22 3e b2 22 fa 3e 42 68 12 bf
       0.1441963 0.15859641 0.48854595 -0.57190335
000060 03 72 90 3e 62 fd 04 bc d1 07 26 3f 66 d9 f0 3d
       0.28211984 -0.008117052 0.64855677 0.117602155
000070 0c 8a b7 be c0 5e 1c be 5e 69 00 be 7e 98 22 3e
       -0.3584751 -0.1527052 -0.12540194 0.15878484
000080 41 32 24 3e d1 88 a1 bd 55 20 ad 3d a6 62 ee be
       0.16034795 -0.07887424 0.084534325 -0.46559638
000090 bf 0c 09 3f 84 0b 07 3d 96 a9 08 be ca c4 a6 be
       0.53535074 0.032969967 -0.13345942 -0.32572013
0000a0 69 35 eb 3e 80 de 42 3e 76 5f 17 3e 1e ea 08 3e
       0.45939186 0.1903019 0.14782509 0.13370559
0000b0 9f 4f b4 bc 23 bc 5f 3e b7 d6 c6 3e df 88 9a be
       -0.022010623 0.21849112 0.3883569 -0.3018255
0000c0 ed bb 35 be 9b 44 0d be a6 b9 3a be 12 17 7e 3c
       -0.17747469 -0.13795702 -0.18234882 0.01550843
0000d0 93 e4 8f 3e 35 b1 3b be 69 2f f3 bb a9 1c 70 be
       0.28104076 -0.18329318 -0.007421423 -0.23448433
0000e0 61 9a 59 3e e7 8f 40 bd 90 40 40 3e d0 cd bf 3e
       0.21250297 -0.047012236 0.18774629 0.3746171
0000f0 d8 75 4e bf 8c 3d 16 3f 12 dd e3 3e f8 b4 1e 3e
       -0.80648565 0.58687663 0.445046 0.15498722
000100 95 7a 1b be 9a 1e 47 3e c1 04 fc be b2 d6 6f 3e
       -0.1518348 0.19445267 -0.49222377 0.23421744
000110 41 83 bc be 7e d4 c4 3e 7d 86 0e 3e 3f bf c4 be
       -0.3681889 0.3844337 0.1391849 -0.3842716
000120 60 34 6f 3e 48 40 95 be 59 8f 93 3d c3 88 9a be
       0.23359823 -0.29150605 0.07205076 -0.30182466
000130 1f 4a 55 3e 73 44 25 bf 32 be 91 be 73 3b 33 3e
       0.20829056 -0.6455757 -0.2846542 0.17503147
000140 63 56 8c be 06 ff 70 bd 1b e1 1a bf ac 01 ef bc
       -0.27409658 -0.05883696 -0.60499734 -0.029175602
000150 d4 2b 27 3f 58 ec 12 3e 1f dc be be df 59 01 3e
       0.6530125 0.1434797 -0.37277314 0.1263194
000160 14 6e d8 be 1f 93 b2 be 23 51 13 be b0 a1 93 3e
       -0.42271483 -0.3487787 -0.1438642 0.28834295
000170 86 83 18 be 43 05 e6 bc 3d 68 ea be a8 74 05 bf
       -0.14893922 -0.02807868 -0.45782652 -0.5213113
000180 7e f2 76 3e 6f f7 e5 be 9e a3 15 bf 4e 64 bf 3e
       0.24115941 -0.4491534 -0.58452785 0.37381214
000190 05 1e b6 3d 95 c6 ea bd 14 23 48 3e 7e 23 3b bf
       0.088924445 -0.11463658 0.19544631 -0.7310103
0001a0 48 76 86 3d 58 99 9d be c0 96 fd be 8b b4 38 3f
       0.06565529 -0.30781054 -0.49529076 0.72150487
0001b0 4e 13 8f be 88 06 81 be d4 fb d2 be e6 93 d1 3e
       -0.27944416 -0.25200295 -0.41207755 0.4093315
0001c0 e5 1b 50 be 66 61 73 3d 92 14 6e be 01 ca c6 bb
       -0.20323141 0.05941906 -0.23250034 -0.006066561
0001d0 5b f5 d1 3d 34 5b 55 3e ea 9d e7 bd e5 07 59 3e
       0.10251876 0.20835572 -0.113094166 0.21194418
0001e0 70 5b 0b be b6 eb 69 3e 4d 91 ce 3e 7b ce 59 3e
       -0.136091 0.22843823 0.4034523 0.21270172
0001f0 c3 7d b9 3d 77 6b 2a 3d 92 ae 05 3e f8 95 60 3e
       0.0905719 0.041606393 0.13054875 0.21932209
000200 58 89 77 3e c9 4c 98 be 97 bd fc 3d 09 99 98 3d
       0.24173486 -0.29746082 0.12340849 0.07451064
000210 09 b7 57 be d6 e2 c3 be 67 53 63 3f 95 a4 1b bf
       -0.21065916 -0.38259 0.88799137 -0.6079801
000220 d3 71 c6 be b8 17 e3 3e 60 12 5b be 18 c6 8d 3e
       -0.38758716 0.44354033 -0.21393728 0.27690196
000230 54 a3 b3 3d 43 5f 86 3d a2 70 53 3d 0b e7 09 bf
       0.08771387 0.065611385 0.051621087 -0.5386817
000240 1e d0 9f bd d4 7d 03 be 13 98 38 bd 92 86 d3 be
       -0.07803367 -0.12840968 -0.045066904 -0.41313607
000250 da 77 99 3e 68 db f8 be e4 f7 08 3e c7 f7 73 bd
       0.29974252 -0.48604894 0.13375813 -0.05956247
000260 f0 8e d0 be bc f0 a5 be 8b 2f bd be 4a a0 8f 3e
       -0.40734053 -0.32410228 -0.36950335 0.28051978
000270 b7 69 35 3e b8 26 fb be 6d ef 04 be a4 01 4d be
       0.17716108 -0.49052978 -0.12981959 -0.20020157
000280 3e e6 37 be 60 5d 88 bb 22 58 e6 be ca 55 6b be
       -0.17958924 -0.004161522 -0.44989115 -0.22981945
000290 dc 43 7f be 8a 50 dd be 08 2e 36 be 24 65 ad 3e
       -0.2492823 -0.4322551 -0.17790997 0.33866227
0002a0 54 d6 b7 bd e5 e1 37 3e b7 79 57 be 83 c5 81 3e
       -0.08976427 0.17957266 -0.21042524 0.25346002
0002b0 6f 28 fb 3e 4c 37 4b bf 02 3e 7f bd 5e 48 e2 3d
       0.49054286 -0.7938125 -0.062314995 0.11048959
0002c0 59 af 5a bf 12 fd 5a bd 6d 7e 1c 3e 22 c2 12 be
       -0.8542381 -0.053464003 0.15282603 -0.14331868
0002d0 03 1d cd be 2c 8f 9d 3d f7 11 f2 bd 04 fe 10 3e
       -0.40061197 0.076933235 -0.11819833 0.141594
0002e0 54 2b 9c be fc d8 be 3a 5c 97 10 be 87 19 30 be
       -0.30501807 0.0014560516 -0.14120239 -0.17197238
0002f0 66 7c 19 3d 8a a9 59 3c 85 63 7d be f2 d5 62 3f
       0.03747215 0.01328505 -0.24744995 0.88607705
000300 52 39 08 3f b6 15 ba 3d 33 fb 09 3f 91 c9 4e 3f
       0.53212464 0.09086172 0.53898925 0.80776316
000310 86 61 f2 3d 25 98 90 3e d3 a2 48 be f3 46 b9 3e
       0.11835007 0.28241077 -0.19593363 0.36186942
000320 51 59 a8 be 09 cb 75 3d af 18 74 3c db 56 e3 3d
       -0.32880643 0.060008083 0.014898463 0.11100551
000330 71 95 d4 3d a4 11 2d 3d b2 e8 fb 3c c1 33 23 3f
       0.10380066 0.04225315 0.030750606 0.63750845
000340 ea d2 56 3e 6d 7e ee be 94 01 fa 3e af 77 81 be
       0.20978895 -0.4658083 0.4882933 -0.25286624
000350 d9 eb f0 3d 2d 30 03 bf 01 a2 81 3b 56 59 87 3d
       0.11763734 -0.51245385 0.00395608 0.06608836
000360 f6 84 ee 3e f8 e4 84 bc c3 f8 30 3f a6 02 53 3e
       0.46585816 -0.016222462 0.6912958 0.20606479
000370 2c 9e 15 3e eb f7 36 3e 68 8d 12 be d1 82 45 3c
       0.14611119 0.1786801 -0.14311755 0.012055115
000380 a6 22 27 3e 47 d8 a6 be ed c7 c3 3b bc 5d 9a 3c
       0.16321811 -0.32586882 0.0059747607 0.018843524
000390 85 31 d7 bc b1 86 bd bd 19 3d 6f 3e 41 0b 68 3e
       -0.02626873 -0.09254206 0.2336315 0.22660543
0003a0 b8 9d 23 3e 29 91 96 be b4 f3 6a be 0a 49 12 bf
       0.15978134 -0.29407623 -0.22944528 -0.571427
0003b0 0d b3 61 3e 29 21 6b be c0 7b 32 be ff d2 61 3e
       0.22040959 -0.22961868 -0.1743002 0.22053145
0003c0 7d 32 c7 3e a4 17 6f be 3f 84 2b be b3 1b 1a 3f
       0.38905707 -0.23348862 -0.16749667 0.60198516
0003d0 48 31 6e bf a6 6f 02 be 32 1c 2c 3e 5e 58 85 3d
       -0.9304395 -0.12737903 0.1680763 0.06510995
0003e0 25 bc e6 be 2b f4 74 be fc 8d 3d 3e e8 5d 84 be
       -0.45065418 -0.23921268 0.18511194 -0.25852895
0003f0 1e 07 03 3e d0 82 aa bc 15 bb d5 3d 42 83 19 3f
       0.12795684 -0.02081433 0.10436074 0.5996591

network_body._body_endoder.seq_layers.0.bias f4 [128]
000000 32 16 b1 3c 7d 3b b3 bc 51 c7 9b bc e8 ac 3c 3c
       0.021617029 -0.021878952 -0.01901594 0.011515833
000010 be ed 1b 3c 96 22 dc 3c dc cc c4 3b 56 2a 7c 3c
       0.009517131 0.02687196 0.0060058665 0.015390953
000020 7f bb 97 3c d6 18 2c 3d 73 80 17 bd 06 6d 3d 3c
       0.018522022 0.042015873 -0.036987733 0.011561638
000030 c8 15 d8 bc c5 ca c9 3c cc b5 27 bd ed 0a 9d 3c
       -0.026377574 0.02463282 -0.04094486 0.019170249
000040 d3 3a 48 3d d3 18 cb bc f9 37 f0 3c cd 7a 23 bc
       0.048884224 -0.02479211 0.029323565 -0.009978008
000050 37 a8 37 3c d1 86 1a 3d 17 1d db b6 c5 c0 29 bd
       0.011209539 0.037726227 -6.530095e-06 -0.041443605
000060 dd 71 1f 3d 56 74 eb 3b ad 11 01 3d 60 bb 16 3d
       0.038926948 0.007185499 0.031510998 0.03679979
000070 a2 9c a7 3b 8d 99 e2 3c 5d 00 16 3c 11 d0 9a ba
       0.0051151076 0.02766111 0.00915536 -0.0011811276
000080 78 ef 11 3d fd 0a 46 3c a5 c6 f9 3c 19 f5 65 3d
       0.035628766 0.012087581 0.030490229 0.056141946
000090 1c e6 de 3c 82 fe c7 39 21 b4 40 3c d9 11 06 bc
       0.027209334 0.0003814586 0.011761696 -0.008182966
0000a0 cb 27 42 bd 73 f9 09 3d 83 86 63 3c 09 a2 a0 bc
       -0.04740123 0.03368516 0.013887051 -0.019608514
0000b0 ff a0 0a 3d 6f 32 33 3d eb ed 3e bd 6d 78 33 3c
       0.033844944 0.04374927 -0.046613615 0.010954005
0000c0 f1 fe 9b 3b 26 63 b5 3c 4b c5 2e 3d bf a6 e4 ba
       0.004760616 0.022142004 0.042668622 -0.0017444714
0000d0 9d eb 67 3c 6d 4b 6a 3c 6c 54 ca 3c 91 37 f1 bc
       0.014155296 0.0143002095 0.024698459 -0.029445441
0000e0 31 8c 2a 3a df 63 3f 3c 0f 11 3f bc 9b e2 a9 3b
       0.00065058755 0.011681526 -0.011661782 0.005184484
0000f0 b3 ee 97 3c d2 4f 3f 3b 09 17 f1 ba 3e 30 fa bc
       0.018546438 0.0029191864 -0.0018393706 -0.030540582
000100 67 5d b3 3c 9a a9 ed bb 23 91 15 3d 58 86 99 bc
       0.021895124 -0.007252884 0.036515366 -0.018740818
000110 aa 04 e5 3c 26 28 7c 3d f5 9c 45 3b 1f c4 cf 3c
       0.027956326 0.061561726 0.0030153368 0.025362073
000120 25 ed 41 3c 01 10 53 3b f6 cf 05 3d 77 0b 10 3c
       0.011836325 0.0032205584 0.03266903 0.008791796
000130 e9 ac 32 bc a0 ac ae bc 9d 3a 00 3d 57 79 3e bd
       -0.010905483 -0.021322548 0.031305898 -0.046502437
000140 94 f4 a0 bc 8f 3f a1 3c 87 32 51 bc a8 09 07 bc
       -0.019647874 0.019683627 -0.012768394 -0.008242048
000150 db 37 b2 3b 62 2f e0 3c 76 76 a0 3c a5 99 41 bd
       0.0054387874 0.027366344 0.019587737 -0.047265667
000160 b6 7a 1a 3d e8 29 42 3c 0a 14 ed bc f0 4d a9 3c
       0.037714683 0.011850812 -0.02894022 0.020667046
000170 c5 d1 5f bb 5c 49 66 3c 19 9b 5a 3c 1c 69 ba bc
       -0.0034152132 0.014055576 0.013342642 -0.022755198
000180 71 13 c3 bc 69 f4 78 3c f9 26 13 3d 44 67 80 3d
       -0.023812981 0.015194991 0.03592584 0.06269696
000190 e0 5e 21 3d a5 df d0 3c 1c 08 c4 3c e0 de e4 bc
       0.03939712 0.025497267 0.023929648 -0.027938306
0001a0 62 f5 1f bd 3b 90 45 3d 5f 68 01 3d 91 0c 24 3d
       -0.039052375 0.048233252 0.031593677 0.040051047
0001b0 ff c4 ba 3c 95 c9 30 3d 58 d6 d2 3c c9 8d a8 bc
       0.022799013 0.043160994 0.025736973 -0.02057542
0001c0 ed ee e4 b9 85 1f c4 bb 61 97 9c ba 9f ab 05 3d
       -0.00043665562 -0.0059852027 -0.001194697 0.032634374
0001d0 57 ce da 3c fc ab 3f bd 35 8e 99 3c a5 8e ba 3c
       0.026709719 -0.046794876 0.018744567 0.022773096
0001e0 d0 c0 8d 37 4c cc dc ba 29 3c 0e 3d b3 cd b7 3c
       1.6898295e-05 -0.0016845553 0.034725342 0.022436952
0001f0 98 82 c8 3a f8 a0 d1 3c 7c e6 08 3c 76 71 88 3d
       0.0015297709 0.025589451 0.008355733 0.06662266

network_body._body_endoder.seq_layers.2.weight f4 [128, 128]
000000 8b 82 73 3d 6a 45 93 bd 1e 3e e1 bc ca 68 03 be
       0.059450667 -0.07190974 -0.02749544 -0.12832943
000010 e6 34 1c 3d e4 ed e9 bd c6 9a 29 3e 08 50 bc bb
       0.038136385 -0.11422327 0.16562948 -0.005746845
000020 fb 1f 8e 3d 56 80 03 3e ca 05 87 bd d0 c3 f3 bd
       0.069396935 0.12841925 -0.06592901 -0.11902583
000030 a2 b2 88 bc 1c 45 52 bd 59 28 85 bd eb 84 52 3c
       -0.016686741 -0.05133544 -0.06501836 0.012849073
000040 cb e9 99 3d 0b d1 ae bd b3 c5 41 3e 26 11 9d bc
       0.075152956 -0.085359655 0.18923073 -0.019173216
000050 6d eb f9 3a 19 eb 8c bb f2 be 80 bd ab 41 05 bd
       0.0019067355 -0.0043004868 -0.0628642 -0.03253333
000060 5f e6 c8 3c 5b 03 dc bc b0 9d 09 3e 11 59 dd 3d
       0.024523912 -0.026857069 0.1343906 0.10808004
000070 a8 01 84 bc 83 3c eb 3c 4b 43 a0 bd 6a d8 b5 3d
       -0.016114071 0.028715378 -0.07825335 0.08879168
000080 cb 30 1a be 01 49 13 be 90 cd 0e bc d6 04 53 3b
       -0.15057676 -0.14383318 -0.008716002 0.0032198927
000090 17 84 eb 3c a7 d8 e9 bd a6 e9 3c ba fb 48 c1 3c
       0.028749509 -0.11418276 -0.0007206447 0.02359437
0000a0 d0 99 8a 39 e9 67 57 3d 40 99 4d 3c be 77 5c 3d
       0.0002643601 0.05258933 0.012548745 0.053825133
0000b0 41 51 b3 bc 6d 71 26 3e 53 91 5f bb 5d 12 a7 bd
       -0.02188933 0.16254206 -0.003411372 -0.081577994
0000c0 ac 2a df 3d 42 0d cc 3d 71 4c 00 3c 6e ef 55 be
       0.10896811 0.09963466 0.007830725 -0.20892116
0000d0 ef e4 2c 3d d5 6b 2f 3c 8b bd 4c be c8 bb eb bd
       0.042210516 0.0107068615 -0.1999418 -0.11510426
0000e0 3f 84 81 bc c9 2e 01 3e 8b c8 de bd 41 8e eb 3d
       -0.01581013 0.12615503 -0.10878094 0.11501742
0000f0 02 ea df bd b4 da 52 be b1 d9 e9 bc f9 6a 93 3d
       -0.10933305 -0.20591241 -0.028546186 0.07198138
000100 c6 13 5b 3d ed b1 25 be b2 36 b4 bd e6 26 93 3d
       0.053485654 -0.16181155 -0.08799495 0.07185154
000110 c6 ff 90 3c 95 87 99 bc 83 6f c0 bd c9 58 8a 3c
       0.017700087 -0.018741408 -0.09396269 0.01688804
000120 b2 b1 e3 3c 6f ae 11 be f9 37 3f 3e 80 ba 57 bd
       0.027794693 -0.14226697 0.18673696 -0.052668095
000130 8e fd 75 bd 87 63 b7 bd e8 44 0b bd 5b 5f 6e bb
       -0.06005626 -0.0895453 -0.03400126 -0.0036372754
000140 43 cb 2f bd 1e a4 e5 bc 56 fd b2 bd 0a 5c 52 bd
       -0.042918455 -0.028032359 -0.08739726 -0.051357307
000150 55 ee 45 be 13 06 08 3d 5e 0a 48 3e ff 0e 1b bb
       -0.19329198 0.033208918 0.19535205 -0.0023660061
000160 16 c2 1a be 4d 68 00 3b a0 2a 12 3d c1 49 2f 3e
       -0.151131 0.0019593418 0.03568518 0.17117979
000170 93 d3 ab 3d 4c 0f ec 3d a5 2e 9d bd 44 e3 90 3d
       0.08389964 0.11526355 -0.07674912 0.070745975
000180 66 c9 42 3d 23 67 a2 3e 91 18 74 3d 60 77 a1 bd
       0.04755535 0.31719312 0.05959374 -0.07884097
000190 f4 95 ed bc 4f 80 6e 3d 9c e4 50 3e 9e 5a 3b bb
       -0.029002167 0.058227833 0.20399708 -0.0028587948
0001a0 0a 18 e4 bd 78 15 56 bc 92 29 64 bd a1 c5 af bd
       -0.111373976 -0.013066642 -0.055703707 -0.085826166
0001b0 51 28 03 3d 22 0b b9 3d a1 eb ab bd d8 f2 c8 bd
       0.03202087 0.090353265 -0.08394552 -0.09811944
0001c0 05 b5 93 3d 40 ce 38 3e 2c 5a 06 3d cc fd 17 3e
       0.07212261 0.18047428 0.03280084 0.1484291
0001d0 d9 83 d9 3d fd c1 17 be c9 1a 1c bd 38 b1 22 3d
       0.10620851 -0.14820094 -0.03811148 0.03971979
0001e0 20 4e 47 be 0f 61 98 3d da 23 16 3d 08 4f ec 3d
       -0.19463396 0.074403875 0.036655284 0.115385115
0001f0 e3 06 b7 3d c8 e6 94 3d 02 81 9d 3d f7 7b ef 3d
       0.089368604 0.072705805 0.07690622 0.11693566
000200 56 01 9f 3d 26 79 fa bc 20 c8 51 bd ee a8 b8 bd
       0.07763927 -0.030575346 -0.051216245 -0.09016596
000210 d3 11 cb bd 3b bb 8a 3c fc f3 4e 3d cd 15 00 bd
       -0.09915509 0.016934982 0.05052565 -0.03127079
000220 35 3f 22 bd 57 14 1d be 03 cf 4b bd 83 a4 86 3d
       -0.03961106 -0.1533979 -0.04975797 0.06574347
000230 36 a1 76 bb 22 21 d0 3c 75 f9 e0 bd 9f 64 71 bd
       -0.003763271 0.025406424 -0.1098508 -0.05893385
000240 ee 90 fe bd 58 f4 ca 3c f9 87 d9 3d 12 da 87 3d
       -0.12429987 0.024774715 0.10621638 0.066333905
000250 bf 20 fb 3d ea 90 48 bc 59 9f 2c bc 71 3b fe b9
       0.12262105 -0.012241581 -0.010536038 -0.00048490943
000260 63 2e 2d 3c 5a 3a 79 3c 79 6a 21 be a3 88 53 bd
       0.0105701415 0.015211666 -0.15763272 -0.05164398
000270 c1 ea e4 3d cd 73 27 be 70 2b 41 3d 9f 20 08 bd
       0.11177588 -0.16352768 0.047160566 -0.033234235
000280 53 01 ae bc fb 04 01 3e 8c b9 87 be b4 56 dc 3c
       -0.021240866 0.12599556 -0.2650875 0.026896812
000290 26 1e da 3d 05 9c df bd 69 89 a5 bd 65 0c 09 3d
       0.106502816 -0.1091843 -0.080828495 0.033459086
0002a0 d4 fd 82 3d eb 21 97 3d ad 6c d3 3b 21 29 8a 3c
       0.0639607 0.07379516 0.006452164 0.016865315
0002b0 a6 63 19 be c1 91 12 bd 58 0d 2a 3b 20 87 34 3e
       -0.14979419 -0.035783533 0.0025947895 0.17629671
0002c0 ce 7c 92 bd ce 43 93 be 6e 0b 15 be 88 f4 2a 3d
       -0.07152711 -0.28762668 -0.14555141 0.04173711
0002d0 2f d3 8a 3c d6 e0 01 3e 88 b1 60 bd fb 53 b5 bb
       0.016946403 0.12683424 -0.054856807 -0.005533693
0002e0 e0 aa 90 bd 53 18 94 bb 15 f2 0b bd cd 48 39 bc
       -0.07063842 -0.0045195012 -0.034166414 -0.011308861
0002f0 5c 89 58 bd d0 53 b0 bd 9c 55 85 3d fe 68 40 3d
       -0.05286537 -0.08609736 0.06510469 0.04697513
000300 b6 27 bf bd 3d c1 91 bd 1b c1 d8 3d b1 3b c7 3c
       -0.09333746 -0.071169354 0.10583707 0.024320455
000310 ca 26 96 3d 2f 17 16 bd f8 ff 45 be ee 67 aa 3d
       0.07331617 -0.036643203 -0.19335926 0.08320604
000320 8e c1 ce bc a4 a1 60 3d a8 2f d6 bd 6c 0d d3 bd
       -0.025238778 0.054841653 -0.104583085 -0.103052944
000330 4c 80 99 3d 79 ec 25 be ce b5 14 be 89 3d 5d 3d
       0.07495174 -0.16203488 -0.14522478 0.054013763
000340 e9 ce c9 3d ad ba 1c be 0c 85 b7 3a b9 f4 b1 bd
       0.09853918 -0.15305586 0.0014001443 -0.08689255
000350 ad 63 d4 3d 52 4e 0b 3d 3d 45 00 3d 71 77 dd bc
       0.10370574 0.03401024 0.03131603 -0.027034493
000360 2e 18 a9 bd 1e 3c 0e bd c1 82 91 3d 95 e8 41 3c
       -0.08256565 -0.0347253 0.071050175 0.011835237
000370 69 e3 c9 bd 7c 17 82 bd 44 2e f0 3d 73 4b 0d 3e
       -0.09857828 -0.063521355 0.117275745 0.13798313
000380 97 2a 7f bd a2 24 67 bd f8 b5 21 3e c7 34 74 3d
       -0.062296476 -0.05643142 0.15792072 0.059620645
000390 a3 2a 80 3d 92 0d 04 3d f7 6b f0 3c 40 8e 72 bc
       0.06258132 0.032239504 0.029348357 -0.014804423
0003a0 10 65 31 3e 33 c9 d0 bc b0 fb c2 bc a9 14 b7 bc
       0.17323709 -0.025486564 -0.023801655 -0.022348719
0003b0 11 63 8f bc e1 8e 42 bd a7 f8 6e 3d ea fe d1 bc
       -0.017503293 -0.04749954 0.058342602 -0.025634248
0003c0 aa 17 e8 bb f5 16 b2 3d f6 92 6b bd 3a 8c 37 3e
       -0.007082899 0.08695785 -0.0575132 0.17924586
0003d0 21 cc 85 bd c3 3e 14 3e 30 f6 c6 3d 41 43 a5 3d
       -0.06533075 0.14477067 0.09714925 0.08069468
0003e0 35 1d 17 bd 12 d8 38 3d af 03 87 bd d5 30 a3 3d
       -0.03689309 0.045127936 -0.065924995 0.07968298
0003f0 41 f6 e5 3c 41 4b b3 3c dd c3 01 bd fe e7 29 bd
       0.028071525 0.02188647 -0.03168093 -0.04148101

network_body._body_endoder.seq_layers.2.bias f4 [128]
000000 c3 ff f9 3c 9f b6 8a bc ca ec 1b 3b d8 54 2e 3c
       0.030517465 -0.016932784 0.002379226 0.0106403455
000010 a2 8f b4 3c 49 93 cd 3c 1f a5 15 bc 12 56 ca bc
       0.022041146 0.025094645 -0.009133606 -0.024699245
000020 d3 9e 09 b8 0e 64 6f bc e2 28 08 3d 08 11 f4 bc
       -3.2811262e-05 -0.014611257 0.033242114 -0.029793277
000030 86 74 0a 3c 93 54 eb 3c ea 4f 9a 3c ca 32 ae 3c
       0.008450633 0.028726852 0.018836934 0.021264452
000040 4f d5 8d bb 99 07 4c bc b1 55 c9 3c e6 33 bb bc
       -0.004328407 -0.012452983 0.024576994 -0.022851896
000050 48 71 e8 3c a0 ae 7e 3c 73 da e2 ba 5c c6 ae 3c
       0.02837433 0.0155445635 -0.0017307535 0.02133482
000060 87 41 db 3c c3 91 c0 3c cb 1d f1 bb a5 e4 cb 3c
       0.026764644 0.023507005 -0.007358288 0.0248893
000070 4d 62 69 bc ef 8e bf 3b 4c 87 3b 3b a0 b2 83 3c
       -0.014244628 0.0058458964 0.0028614579 0.016076386
000080 9c a0 b8 3b b5 b9 91 3c 5f 40 d6 3c 0c 84 c5 3c
       0.0056343805 0.017788747 0.026153741 0.024110816
000090 8d 28 42 3c fb 13 cb 3c 64 78 5a 3c 6a fe f4 3c
       0.011850488 0.0247898 0.013334367 0.02990647
0000a0 ba 5d 17 3c de 6e f1 b9 02 92 c8 3c 76 79 d2 3c
       0.009238655 -0.00046049705 0.024483684 0.025692683
0000b0 7a d2 d1 bc 3e 2e 46 3a 3b 9e e6 3c 08 61 90 bb
       -0.025613058 0.0007559991 0.028151622 -0.0044060983
0000c0 72 c2 fb 3c c4 fa 42 3b b3 5b c5 bb f3 8b 71 3c
       0.030732367 0.0029751519 -0.0060228943 0.014742839
0000d0 c1 56 e9 3b 05 29 49 3c 2a 7e 88 3c 47 5c 86 bc
       0.0071209376 0.012277846 0.016661722 -0.016401423
0000e0 e1 43 08 3b a0 4d 9a 3c 8d a8 b0 3c f2 88 c5 3c
       0.0020792412 0.018835843 0.021564746 0.024113152
0000f0 d7 a9 92 3c d3 1b 44 bc 4e dc a8 3c d4 94 17 3d
       0.017903252 -0.011969524 0.020612862 0.037007168
000100 20 c5 c5 3c a1 36 80 bc 6e e8 cf bb c4 20 f0 bb
       0.024141848 -0.01565105 -0.0063448464 -0.0073281247
000110 66 6c f9 3b d5 e4 8a bc 0c f5 50 bc 72 6d 6f 3c
       0.007611799 -0.016954819 -0.012753736 0.014613496
000120 dc be 33 3d 7b 6a 70 3c 03 a2 91 3c 4c 0c ee 3c
       0.04388319 0.014673824 0.017777449 0.029058598
000130 53 ad b1 3c 5a ad eb 3c 29 1a a2 bc 15 77 37 bb
       0.021689093 0.028769184 -0.019787865 -0.0027994562
000140 62 4f a8 3b 87 31 30 3d d2 37 33 3c f9 e0 7d 3b
       0.0051364163 0.043015983 0.010938602 0.003873883
000150 28 1d f3 3c 6d 79 b7 3c f0 d9 ab 3c 31 a9 00 3b
       0.029676989 0.022396768 0.020977944 0.0019632096
000160 a0 60 f5 3c e0 03 f3 3c 71 2b f8 3c 24 03 dc 3c
       0.029953301 0.029664934 0.030294152 0.026856966
000170 e3 ae c7 bc f3 8c eb 3c 82 43 8a 3c 86 3a 2d 3d
       -0.024375385 0.028753733 0.016877893 0.04229214
000180 7d eb 12 3c ad 4b 1a 3d fc 5b 9e 3c 68 9b d9 3b
       0.008967278 0.037669826 0.019330971 0.0066408403
000190 55 cb a5 3c 22 d1 de 3c 63 51 43 3d be ea 0c 3c
       0.020238558 0.027199332 0.04768504 0.008600889
0001a0 a3 08 85 3a 43 24 9b bc 1b 25 88 3c d8 d6 01 3d
       0.0010149669 -0.01893819 0.016619256 0.03169903
0001b0 2e a6 d3 3c 7c 04 88 bc 12 3b 9d 3c d1 13 ec 3c
       0.025836077 -0.0166037 0.019193206 0.028818043
0001c0 7a ec 12 3b 4c 42 aa 3c 5e b2 08 3d 52 69 77 3c
       0.0022418783 0.020783566 0.03337323 0.015100794
0001d0 b6 22 03 3d 7b 5a 58 bb d4 31 a7 3b 6b 49 8d bc
       0.032015525 -0.0033012915 0.0051023755 -0.017246922
0001e0 2f 63 a4 3c 4e c8 b8 3c 1e c5 e2 3c 27 56 43 3c
       0.020066826 0.02255645 0.027681883 0.011922396
0001f0 e0 b9 2a 3d 74 68 00 3d f6 97 94 3b a3 e4 6c bc
       0.04168117 0.031349614 0.0045347167 -0.014458808

action_model._discrete_distribution.branches.0.weight f4 [5, 128]
000000 00 c4 01 bd b9 10 6d 3c 83 d2 55 3c c2 58 84 3c
       -0.03168106 0.014469319 0.013050678 0.016155604
000010 2a 9e 61 bb ab 7e 07 3c f7 04 1f bc 54 9e 1b 3d
       -0.0034426549 0.008269946 -0.009705774 0.03799279
000020 82 5d b5 3c be 93 98 3c a5 4b ae bc a7 32 a4 3a
       0.022139315 0.018625136 -0.021276304 0.0012527303
000030 58 44 87 bc 38 3e 87 bc 48 5a b9 3c fa 25 cb 3c
       -0.016512081 -0.01650916 0.022626057 0.024798382
000040 5b cc bd 3c 88 b1 0b 3d 74 f0 c8 bb 2d 36 1e 3c
       0.023168733 0.034104854 -0.00613218 0.009656471
000050 29 92 9f 3c 12 5d 2c 3c 73 cc 0b 3c 22 d6 f1 bc
       0.019478874 0.010520237 0.008532631 -0.029521052
000060 cd 37 23 3c 67 e8 8d bc d9 fc 10 3b df d4 eb bb
       0.009962034 -0.017322732 0.0022123365 -0.007197007
000070 e6 d1 e1 3b a1 25 ca 3b 36 97 30 bc 92 90 eb 3c
       0.006891477 0.0061690365 -0.010778239 0.02875546
000080 f7 62 5a 3d 4e 52 0c 3d 29 eb 0b 39 90 04 fc ba
       0.053317036 0.03425818 0.00013343677 -0.0019227434
000090 6b 83 20 3d 4e da 29 3c 57 d7 8e 3c e6 fa 4d bb
       0.03918783 0.010366989 0.017436666 -0.0031430065
0000a0 35 15 9f 3c 19 ee 1c bc 34 5d 8a bc 16 57 f5 3c
       0.019419292 -0.009578251 -0.016890146 0.029948752
0000b0 0c 09 90 3b ad 67 81 3b d1 c2 ba 3b 02 81 19 bc
       0.0043956097 0.0039491267 0.0056994935 -0.009369137
0000c0 18 c8 b6 bb 77 6b fd 3a 86 59 02 3c 09 37 b5 3c
       -0.0055780523 0.0019334395 0.007955914 0.02212097
0000d0 d7 c4 b7 bc 28 d0 10 3c 8c 8c 0a 3d 6d d4 6c ba
       -0.022432728 0.008838691 0.033825442 -0.00090343395
0000e0 1c bd 7b 3c f6 97 fe 3c cf 9d 73 bc 0e 03 70 bc
       0.015364911 0.03107832 -0.0148691675 -0.014649166
0000f0 02 84 17 bc 47 55 75 3c cb f5 06 3d 47 99 97 bc
       -0.009247782 0.014973945 0.03294925 -0.018505706
000100 c6 e0 1b 3c 6e 23 6a bb 0f 72 a6 3c 73 59 ad 3a
       0.009514039 -0.0035726684 0.02031806 0.001322551
000110 9b cf a1 bb 00 0b 94 3b e5 e4 4e bc c4 20 be bc
       -0.0049380786 0.004517913 -0.012627815 -0.023208983
000120 46 68 98 bc d8 ea 2d 3b ab 0d 99 3a c1 cd e9 bc
       -0.018604409 0.0026537683 0.0011677047 -0.028540494
000130 3f 36 22 bc 21 5e ff bb 9d ee b0 3b cf 18 1e 3a
       -0.009900629 -0.0077932035 0.0053995387 0.00060309184
000140 04 00 89 3b 9b 23 27 bc 3c 91 d1 b9 64 0a 5e 3b
       0.00418091 -0.01020136 -0.00039971794 0.0033880705
000150 ba 0f 12 bd 8b 0c 9e 3c 38 a3 05 3c e7 b0 2b 3c
       -0.03565953 0.01929309 0.00815659 0.0104791885
000160 0e fd a0 bc 5f 10 c4 3b 46 cd 34 bb f9 8e 2f 3d
       -0.019651916 0.005983397 -0.0027588173 0.04286096
000170 d1 e9 da 3c 15 7a 14 bd 81 cc 04 3c 0b 3b db bb
       0.02672282 -0.03624924 0.008105398 -0.006690388
000180 46 91 9a bc 89 70 4b bd 9f 78 ec bc d2 d3 a2 3c
       -0.0188681 -0.04966787 -0.02886611 0.019876394
000190 3f 70 bf 3c 13 e8 c1 bc f8 aa e5 bc 4a 64 11 3c
       0.023368953 -0.023670232 -0.028035626 0.008874008
0001a0 ba 80 06 bb c9 b8 c1 3b b9 17 8f 3b 55 c6 21 bd
       -0.0020523504 0.0059119207 0.0043668416 -0.039495785
0001b0 86 b0 d1 bc 63 57 d4 3a 1c 39 41 3c 17 01 2d bd
       -0.025596868 0.001620036 0.011793401 -0.042237367
0001c0 d4 af c4 bc 99 0d bf bb cf 4f bb bc 02 b0 12 3d
       -0.024009623 -0.0058304784 -0.022865204 0.035812385
0001d0 2b 20 3d bd b3 f7 8e bb b9 35 4e 3b 63 f5 69 3b
       -0.046173256 -0.004363024 0.0031465127 0.003569924
0001e0 a6 34 ba bc 5f 46 12 3d be ef 3d bc 59 f2 96 3c
       -0.022730183 0.035711642 -0.0115928035 0.018426107
0001f0 05 15 8b bc f7 c6 c6 bb 5a 25 64 3c 42 88 42 ba
       -0.016977796 -0.006066199 0.013924921 -0.00074208167
000200 bd 57 84 3a 28 6a 1f bd b9 c8 70 bc ef 09 19 3d
       0.0010096949 -0.038919598 -0.0146962935 0.03736299
000210 a0 02 5b 3d a1 d1 10 3d 10 f7 b5 bc 40 4a e1 bc
       0.0534693 0.035356168 -0.022212535 -0.027501225
000220 ee 1c 98 3c 13 ff df bb 52 2a 00 3d 92 83 09 bd
       0.018568482 -0.006835827 0.03129036 -0.03357274
000230 9e 4e 59 bd 2e 2c 17 3d af 93 8f 3c 38 af 2e 3b
       -0.05305349 0.036907367 0.017526476 0.0026654731
000240 22 4b 13 bb 24 9b 3f bc 47 36 1b 3d eb e2 e3 bc
       -0.0022475203 -0.011694703 0.03789356 -0.027818164
000250 23 aa 2c 3d 5e 7c 39 3d 3e d5 8d bc 09 dc bd 3b
       0.042154443 0.04528462 -0.017313596 0.0057940525
000260 0b 73 29 3d 08 7d 8c 3c 90 1d 52 3b 86 10 1c 3d
       0.04136948 0.017149463 0.0032061078 0.038101695
000270 55 26 a2 bc 7c d2 9a 3c 65 f3 7b 3c ef 3f 40 3d
       -0.019793669 0.018899195 0.015377854 0.04693597
000280 cd 5f 7f 3c 9d 17 19 3d c5 59 58 3d 25 a4 35 3d
       0.0155868055 0.037376035 0.052819986 0.044345994
000290 b4 ba 07 3d d3 52 1d 3d 5f 58 21 3d b5 33 51 3c
       0.03313704 0.038409065 0.039390918 0.012768676
0002a0 bb a4 74 3a ac bb 45 bc 71 12 df 3c 12 03 e2 3c
       0.0009332408 -0.01206867 0.027230473 0.027589355
0002b0 d8 9f bf bc ba 9f 36 bc 69 ed 23 3d bf e1 0f 3c
       -0.02339165 -0.01114648 0.040021334 0.008781849
0002c0 36 c1 bb 3c 4b 29 18 3c 6b 73 5c bd f1 e4 94 3c
       0.022919279 0.009287189 -0.05382101 0.018175574
0002d0 c4 9c 0d bd 41 dd 0c 3d 44 53 9e 3c f4 ab 46 bd
       -0.03457333 0.03439069 0.019326814 -0.04850383
0002e0 af 9c 90 3a 4c 97 4d 3d 88 ca 11 bd 7f 24 d1 3c
       0.0011033023 0.050193116 -0.03559354 0.025530098
0002f0 8c 8c 1d 3d a5 cb de bc b1 fe 0c 3d 47 e7 83 3c
       0.038464114 -0.027196715 0.03442258 0.016101493
000300 75 d6 69 3d 21 14 bd bc c7 82 0b bd 47 a8 5c bd
       0.057089288 -0.023080887 -0.034060266 -0.05387142
000310 62 12 dd bc 73 86 0c bd ef 7d ea bc 4f 9a b3 3c
       -0.026986305 -0.03430791 -0.028624503 0.021924166
000320 38 5d 34 3d 15 9b e7 3c d2 2e 15 3d 9f ca b4 3b
       0.044034213 0.028272191 0.036421604 0.0055173184
000330 1c e2 b6 3a ca 31 23 3d 47 ce 08 bd 1f 7d bc bb
       0.0013952884 0.039842404 -0.033399846 -0.0057522203
000340 0d 51 f8 3c 18 21 23 bc ca 6e bd bc f8 75 5c 39
       0.030312086 -0.009956621 -0.023124117 0.00021024782
000350 9f 28 49 3c 2e 43 12 3d 0c 3b 57 3d 5e 6a 9b bb
       0.012277751 0.0357086 0.052546546 -0.0047429046
000360 fb 06 fa 3c 2b 86 17 3d 37 50 21 3d 27 72 13 3d
       0.030520907 0.036993187 0.03938314 0.035997536
000370 f8 0f 18 bd 68 9f 91 bc 89 da 4a 3d c4 80 a5 ba
       -0.037124604 -0.017776206 0.049524818 -0.0012626876
000380 1a 32 b7 bc 8f 80 82 3c 6e 4a 96 bc e2 82 1d bc
       -0.022362757 0.015930442 -0.018346038 -0.009613724
000390 d9 0a 4f 3d db f8 a3 bc 5b ba 94 3c df 37 93 3c
       0.050547455 -0.020016124 0.018155267 0.017970977
0003a0 3d d9 9a ba e4 1f f0 bc a2 1d 0b 3d 65 90 eb 3c
       -0.001181401 -0.029312082 0.033963807 0.028755376
0003b0 4f 63 ab bb 76 11 04 bd 39 6a 37 3d 67 5c 2c bc
       -0.0052303444 -0.032243215 0.044779036 -0.010520077
0003c0 5e 29 16 bd d9 1a 0f 3c 93 e0 dd 3c e2 99 d5 bb
       -0.036660545 0.008734428 0.027084624 -0.0065185884
0003d0 28 06 f5 3a 77 ed 93 bc dc 13 ea bb 6a 03 76 bc
       0.0018693851 -0.018057568 -0.0071434807 -0.015015462
0003e0 8b 6f af 3b 36 20 48 3d 8b 2a 23 3d 0c 56 fa 3c
       0.005353873 0.048858844 0.039835494 0.030558608
0003f0 81 18 29 3d 91 ad 03 3d 6f ac e5 3b 6b 6b 2f bd
       0.041283134 0.032147948 0.007009081 -0.04282705

action_model._discrete_distribution.branches.0.bias f4 [5]
000000 16 93 b4 bb b2 79 cc 3c 10 1b ac bc d8 45 aa 3b
       -0.005510698 0.024960373 -0.021008998 0.0051963143
000010 48 fc 07 bc
       -0.008299895
